…
images. It can be done by passing the argument &lt;code class=&quot;highlighter-rouge&quot;&gt;input_shape=(28, 28, 1)&lt;/code&gt; to the first
layer.
Displaying the architecture of the convnet so far by calling &lt;code class=&quot;highlighter-rouge&quot;&gt;model.summary()&lt;/code&gt;:&lt;/p&gt;
&lt;/blockquote&gt;

&lt;blockquote&gt;
  &lt;p&gt;&lt;strong&gt;Output&lt;/strong&gt;:&lt;/p&gt;
&lt;/blockquote&gt;

&lt;div class=&quot;highlighter-rouge&quot;&gt;&lt;div class=&quot;highlight&quot;&gt;&lt;pre class=&quot;highlight&quot;&gt;&lt;code&gt;________________________________________________________________
Layer (type) Output Shape Param #
================================================================
conv2d_1 (Conv2D) (None, 26, 26, 32) 320
________________________________________________________________
maxpooling2d_1 (MaxPooling2D) (None, 13, 13, 32) 0
________________________________________________________________
conv2d_2 (Conv2D) (None, 11, 11, 64) 18496
________________________________________________________________
maxpooling2d_2 (MaxPooling2D) (None, 5, 5, 64) 0
________________________________________________________________
conv2d_3 (Conv2D) (None, 3, 3, 64) 36928
================================================================
Total params: 55,744
Trainable params: 55,744
Non-trainable params: 0
&lt;/code&gt;&lt;/pre&gt;&lt;/div&gt;&lt;/div&gt;

&lt;blockquote&gt;
  &lt;p&gt;The output of every &lt;code class=&quot;highlighter-rouge&quot;&gt;Conv2D&lt;/code&gt; and &lt;code class=&quot;highlighter-rouge&quot;&gt;MaxPooling2D&lt;/code&gt; layer is a &lt;co
…

&lt;/code&gt;&lt;/pre&gt;&lt;/div&gt;&lt;/div&gt;

&lt;blockquote&gt;
  &lt;p&gt;Doing a 10-way classification by using a final layer with 10 outputs and a softmax activation.Displaying the architecture of the convnet so far by calling &lt;code class=&quot;highlighter-rouge&quot;&gt;model.summary()&lt;/code&gt;:&lt;/p&gt;
&lt;/blockquote&gt;

&lt;div class=&quot;highlighter-rouge&quot;&gt;&lt;div class=&quot;highlight&quot;&gt;&lt;pre class=&quot;highlight&quot;&gt;&lt;code&gt;Layer (type) Output Shape Param #
================================================================
conv2d_1 (Conv2D) (None, 26, 26, 32) 320
________________________________________________________________
maxpooling2d_1 (MaxPooling2D) (None, 13, 13, 32) 0
________________________________________________________________
conv2d_2 (Conv2D) (None, 11, 11, 64) 18496
________________________________________________________________
maxpooling2d_2 (MaxPooling2D) (None, 5, 5, 64) 0
________________________________________________________________
conv2d_3 (Conv2D) (None, 3, 3, 64) 36928
________________________________________________________________
flatten_1 (Flatten) (None, 576) 0
________________________________________________________________
dense_1 (Dense) (None, 64) 36928
________________________________________________________________
dense_2 (Dense) (None, 10) 650
================================================================
Total params: 93,322
Trainable params: 93,322
Non-trainable params: 0
&lt;/code&gt;&lt;/pre&gt;&lt;/div&gt;&lt;/div&gt;

&lt;blockquote&gt;
  &lt;p&gt;The &lt;code class=&quot;highlighter-rouge&quot;&gt;(3, 3, 64) &lt;/code&gt;outputs are flattened into vectors of shape &lt;code class=&quot;highlighter-rouge&quot;&gt;(576,)&lt;/code&gt; before going through two Dense layers.
…
